…
  opt = tf.keras.mixed_precision.experimental.LossScaleOptimizer(opt)

Model: "model"
__________________________________________________________________________________________________
Layer (type)                    Output Shape         Param #     Connected to                     
==================================================================================================
inputs_one (InputLayer)         [(None, 48)]         0                                            
__________________________________________________________________________________________________
concat__const__numbers (Concat_ (None, 54)           0           inputs_one[0][0]                 
__________________________________________________________________________________________________
tf.one_hot (TFOpLambda)         (None, 54, 6)        0           concat__const__numbers[0][0]     
__________________________________________________________________________________________________
flatten (Flatten)               (None, 324)          0           tf.one_hot[0][0]                 
__________________________________________________________________________________________________
dense (Dense)                   (None, 5000)         1625000     flatten[0][0]                    
__________________________________________________________________________________________________
batch_normalization (BatchNorma (None, 5000)         20000       dense[0][0]                      
__________________________________________________________________________________________________
dense_1 (Dense)                 (None, 1000)         5001000     batch_normalization[0][0]        
__________________________________________________________________________________________________
batch_normalization_1 (BatchNor (None, 1000)         4000        dense_1[0][0]                    
__________________________________________________________________________________________________
dense_2 (Dense)                 (None, 1000)         1001000     batch_normalization_1[0][0]      
__________________________________________________________________________________________________
batch_normalization_2 (BatchNor (None, 1000)         4000        dense_2[0][0]                    
__________________________________________________________________________________________________
dense_3 (Dense)                 (None, 1000)         1001000     batch_normalization_2[0][0]      
__________________________________________________________________________________________________
batch_normalization_3 (BatchNor (None, 1000)         4000        dense_3[0][0]                    
__________________________________________________________________________________________________
add (Add)                       (None, 1000)         0           batch_normalization_1[0][0]      
                                                                 batch_normalization_3[0][0]      
__________________________________________________________________________________________________
dense_4 (Dense)                 (None, 1000)         1001000     add[0][0]                        
__________________________________________________________________________________________________
batch_normalization_4 (BatchNor (None, 1000)         4000        dense_4[0][0]                    
__________________________________________________________________________________________________
dense_5 (Dense)                 (None, 1000)         1001000     batch_normalization_4[0][0]      
__________________________________________________________________________________________________
batch_normalization_5 (BatchNor (None, 1000)         4000        dense_5[0][0]                    
__________________________________________________________________________________________________
add_1 (Add)                     (None, 1000)         0           add[0][0]                        
                                                                 batch_normalization_5[0][0]      
__________________________________________________________________________________________________
dense_6 (Dense)                 (None, 1000)         1001000     add_1[0][0]                      
__________________________________________________________________________________________________
batch_normalization_6 (BatchNor (None, 1000)         4000        dense_6[0][0]                    
__________________________________________________________________________________________________
dense_7 (Dense)                 (None, 1000)         1001000     batch_normalization_6[0][0]      
__________________________________________________________________________________________________
batch_normalization_7 (BatchNor (None, 1000)         4000        dense_7[0][0]                    
__________________________________________________________________________________________________
add_2 (Add)                     (None, 1000)         0           add_1[0][0]                      
                                                                 batch_normalization_7[0][0]      
__________________________________________________________________________________________________
dense_8 (Dense)                 (None, 1000)         1001000     add_2[0][0]                      
__________________________________________________________________________________________________
batch_normalization_8 (BatchNor (None, 1000)         4000        dense_8[0][0]                    
__________________________________________________________________________________________________
dense_9 (Dense)                 (None, 1000)         1001000     batch_normalization_8[0][0]      
__________________________________________________________________________________________________
batch_normalization_9 (BatchNor (None, 1000)         4000        dense_9[0][0]                    
__________________________________________________________________________________________________
add_3 (Add)                     (None, 1000)         0           add_2[0][0]                      
                                                                 batch_normalization_9[0][0]      
__________________________________________________________________________________________________
dense_10 (Dense)                (None, 1)            1001        add_3[0][0]                      
==================================================================================================
Total params: 14,691,001
Trainable params: 14,663,001
Non-trainable params: 28,000
__________________________________________________________________________________________________
Weights loaded successfully!
0
Optimal solution: 21
Scramble: R' D' B' L' U L' D' F L F' U F D B' F' L U L' F' D U
…
