…
  opt = tf.keras.mixed_precision.experimental.LossScaleOptimizer(opt)

Model: "model"
__________________________________________________________________________________________________
Layer (type)                    Output Shape         Param #     Connected to                     
==================================================================================================
inputs_one (InputLayer)         [(None, 48)]         0                                            
__________________________________________________________________________________________________
concat__const__numbers (Concat_ (None, 54)           0           inputs_one[0][0]                 
__________________________________________________________________________________________________
tf.one_hot (TFOpLambda)         (None, 54, 6)        0           concat__const__numbers[0][0]     
__________________________________________________________________________________________________
concat__const__one__hot (Concat (None, 54, 60)       0           tf.one_hot[0][0]                 
__________________________________________________________________________________________________
up_sampling1d (UpSampling1D)    (None, 216, 60)      0           concat__const__one__hot[0][0]    
__________________________________________________________________________________________________
queuery__variables (Queuery_Var (None, 216, 60)      12960       up_sampling1d[0][0]              
__________________________________________________________________________________________________
multi_head_attention (MultiHead (None, 216, 60)      87540       queuery__variables[0][0]         
                                                                 up_sampling1d[0][0]              
__________________________________________________________________________________________________
add (Add)                       (None, 216, 60)      0           up_sampling1d[0][0]              
                                                                 multi_head_attention[0][0]       
__________________________________________________________________________________________________
dense (Dense)                   (None, 216, 60)      3660        add[0][0]                        
__________________________________________________________________________________________________
elu (ELU)                       (None, 216, 60)      0           dense[0][0]                      
__________________________________________________________________________________________________
dense_1 (Dense)                 (None, 216, 60)      3660        elu[0][0]                        
__________________________________________________________________________________________________
layer_normalization (LayerNorma (None, 216, 60)      120         dense_1[0][0]                    
__________________________________________________________________________________________________
queuery__variables_1 (Queuery_V (None, 216, 60)      12960       layer_normalization[0][0]        
__________________________________________________________________________________________________
multi_head_attention_1 (MultiHe (None, 216, 60)      87540       queuery__variables_1[0][0]       
                                                                 layer_normalization[0][0]        
__________________________________________________________________________________________________
add_1 (Add)                     (None, 216, 60)      0           layer_normalization[0][0]        
                                                                 multi_head_attention_1[0][0]     
__________________________________________________________________________________________________
dense_2 (Dense)                 (None, 216, 60)      3660        add_1[0][0]                      
__________________________________________________________________________________________________
elu_1 (ELU)                     (None, 216, 60)      0           dense_2[0][0]                    
__________________________________________________________________________________________________
dense_3 (Dense)                 (None, 216, 60)      3660        elu_1[0][0]                      
__________________________________________________________________________________________________
layer_normalization_1 (LayerNor (None, 216, 60)      120         dense_3[0][0]                    
__________________________________________________________________________________________________
queuery__variables_2 (Queuery_V (None, 216, 60)      12960       layer_normalization_1[0][0]      
__________________________________________________________________________________________________
multi_head_attention_2 (MultiHe (None, 216, 60)      87540       queuery__variables_2[0][0]       
                                                                 layer_normalization_1[0][0]      
__________________________________________________________________________________________________
add_2 (Add)                     (None, 216, 60)      0           layer_normalization_1[0][0]      
                                                                 multi_head_attention_2[0][0]     
__________________________________________________________________________________________________
dense_4 (Dense)                 (None, 216, 60)      3660        add_2[0][0]                      
__________________________________________________________________________________________________
elu_2 (ELU)                     (None, 216, 60)      0           dense_4[0][0]                    
__________________________________________________________________________________________________
dense_5 (Dense)                 (None, 216, 60)      3660        elu_2[0][0]                      
__________________________________________________________________________________________________
layer_normalization_2 (LayerNor (None, 216, 60)      120         dense_5[0][0]                    
__________________________________________________________________________________________________
queuery__variables_3 (Queuery_V (None, 216, 60)      12960       layer_normalization_2[0][0]      
__________________________________________________________________________________________________
multi_head_attention_3 (MultiHe (None, 216, 60)      87540       queuery__variables_3[0][0]       
                                                                 layer_normalization_2[0][0]      
__________________________________________________________________________________________________
add_3 (Add)                     (None, 216, 60)      0           layer_normalization_2[0][0]      
                                                                 multi_head_attention_3[0][0]     
__________________________________________________________________________________________________
dense_6 (Dense)                 (None, 216, 60)      3660        add_3[0][0]                      
__________________________________________________________________________________________________
elu_3 (ELU)                     (None, 216, 60)      0           dense_6[0][0]                    
__________________________________________________________________________________________________
dense_7 (Dense)                 (None, 216, 60)      3660        elu_3[0][0]                      
__________________________________________________________________________________________________
layer_normalization_3 (LayerNor (None, 216, 60)      120         dense_7[0][0]                    
__________________________________________________________________________________________________
flatten (Flatten)               (None, 12960)        0           layer_normalization_3[0][0]      
__________________________________________________________________________________________________
dense_8 (Dense)                 (None, 60)           777660      flatten[0][0]                    
__________________________________________________________________________________________________
elu_4 (ELU)                     (None, 60)           0           dense_8[0][0]                    
__________________________________________________________________________________________________
dense_9 (Dense)                 (None, 1)            61          elu_4[0][0]                      
==================================================================================================
Total params: 1,209,481
Trainable params: 1,209,481
Non-trainable params: 0
__________________________________________________________________________________________________
Weights loaded successfully!
0
Optimal solution: 21
Scramble: R' D' B' L' U L' D' F L F' U F D B' F' L U L' F' D U
…
